…
uct_attention_simple)  enc_fa1 = GraphAttentionEncoder(env, num_heads=num_heads, embed_dim=embed_dim, num_layers=num_layers,                             sdpa_fn=scaled_dot_product_attention)  enc_fa2 = GraphAttentionEncoder(env, num_heads=num_heads, embed_dim=embed_dim, num_layers=num_layers,                             sdpa_fn=scaled_dot_product_attention_flash_attn)  # Flash Attention supports only FP16 and BFloat16 enc_simple.to(\"cuda\").half() enc_fa1.to(\"cuda\").half() enc_fa2.to(\"cuda\").half() Out[4]: <pre>GraphAttentionEncoder(\n  (init_embedding): TSPInitEmbedding(\n    (init_embed): Linear(in_features=2, out_features=128, bias=True)\n  )\n  (net): GraphAttentionNetwork(\n    (layers): Sequential(\n      (0): MultiHeadAttentionLayer(\n        (0): SkipConnection(\n          (module): MultiHeadAttention(\n            (Wqkv): Linear(in_features=128, out_features=384, bias=True)\n            (out_proj): Linear(in_features=128, out_features=128, bias=True)\n          )\n        )\n        (1): Normalization(\n          (normalizer): BatchNorm1d(128, eps=1e-05, momentum=0.1, affine=True, track_running_stats=True)\n        )\n        (2): SkipConnection(\n          (module): Sequential(\n            (0): Linear(in_features=128, out_features=512, bias=True)\n            (1): ReLU()\n            (2): Linear(in_features=512, out_features=128, bias=True)\n          )\n        )\n        (3): Normalization(\n          (normalizer): BatchNorm1d(128, eps=1e-05, momentum=0.1, affine=True, track_running_stats=True)\n        )\n      )\n      (1): MultiHeadAttentionLayer(\n        (0): SkipConnection(\n          (module): MultiHeadAttention(\n            (Wqkv): Linear(in_features=128, out_features=384, bias=True)\n            (out_proj): Linear(in_features=128, out_features=128, bias=True)\n          )\n        )\n        (1): Normalization(\n          (normalizer): BatchNorm1d(128, eps=1e-05, momentum=0.1, affine=True, track_running_stats=True)\n        )\n        (2): SkipConnection(\n          (module): Sequential(\n            (0): Linear(in_features=128, out_features=512, bias=True)\n            (1): ReLU()\n            (2): Linear(in_features=512, out_features=128, bias=True)\n          )\n        )\n        (3): Normalization(\n          (normalizer): BatchNorm1d(128, eps=1e-05, momentum=0.1, affine=True, track_running_stats=True)\n        )\n      )\n      (2): MultiHeadAttentionLayer(\n        (0): SkipConnection(\n          (module): MultiHeadAttention(\n            (Wqkv): Linear(in_features=128, out_features=384, bias=True)\n            (out_proj): Linear(in_features=128, out_features=128, bias=True)\n          )\n        )\n        (1): Normalization(\n          (normalizer): BatchNorm1d(128, eps=1e-05, momentum=0.1, affine=True, track_running_stats=True)\n        )\n        (2): SkipConnection(\n          (module): Sequential(\n            (0): Linear(in_features=128, out_features=512, bias=True)\n            (1): ReLU()\n            (2): Linear(in_features=512, out_features=128, bias=True)\n          )\n        )\n        (3): Normalization(\n          (normalizer): BatchNorm1d(128, eps=1e-05, momentum=0.1, affine=True, track_running_stats=True)\n        )\n      )\n    )\n  )\n)</pre> In\u00a0[5]: Copied! <pre>def build_models(num_heads=8, embed_dim=128, num_layers=3):\n    enc_simple = GraphAttentionEncoder(env, num_heads=num_heads, embed_dim=embed_dim, num_layers=num_layers,\n                                sdpa_fn=scaled_dot_product_attention_simple)\n\n    enc_fa1 =
…
